results/concrete_strength_model.pt (torch, 48064 bytes, 7 tensors)

fc1.weight f4 [126, 8]
0	0x3d742028	0.05960098
1	0xbca09fdb	-0.019607475
2	0x3ee8a0c1	0.45435145
3	0x3e59f26c	0.21283883
4	0xbd332d83	-0.043744575
5	0xbe5cd002	-0.21563724
6	0x3d9d32ca	0.07675703
7	0x3c925e6b	0.017867288
8	0xbe0d89cc	-0.13822097
9	0x3e64d338	0.22346199
10	0xbe0b3da3	-0.13597731
11	0x3dc1db68	0.094656765
12	0x3e16fa38	0.14743888
13	0xbe2baef6	-0.16765961
14	0xbe8f98b0	-0.2804618
15	0x3e34caa4	0.17655426
16	0x3e267d76	0.16258797
17	0xbea8c60c	-0.32963598
18	0xbbb0e816	-0.0053987605
19	0x3dc5dc86	0.09661202
20	0xbe47d47d	-0.19514652
21	0xbe9712cb	-0.29506525
22	0xbe780bdf	-0.24223278
23	0xbe09a851	-0.13443114
24	0x3daee3e8	0.085395634
25	0xbe1da02a	-0.15393129
26	0x3e37051e	0.17873046
27	0xbe525b67	-0.2054268
28	0xbd90e538	-0.0707497
29	0x3eb69343	0.35659227
30	0x3cff2649	0.031146185
31	0x3d95cfb1	0.073150046
32	0x3e34915a	0.17633572
33	0xbe18e23f	-0.14930056
34	0x3ddbbf87	0.1072989
35	0x3d5eeb1f	0.054423448
36	0x3e089ef5	0.13341887
37	0xbe5162f1	-0.204479
38	0xbd18ba16	-0.03728684
39	0x3ceefc3c	0.02917301
40	0x3eba9594	0.36442244
41	0x3e88f23d	0.26747313
42	0x3e73eacf	0.23820041
43	0xbf022de8	-0.508513
44	0x3e801556	0.25016278
45	0x3f0ab290	0.54178715
46	0xbe26c19a	-0.1628479
47	0x3e3f9434	0.18708879
48	0xbdde83e9	-0.108650036
49	0xbd98bac8	-0.07457501
50	0xbe8f2e73	-0.27965125
51	0x3e653ac4	0.22385699
52	0x3d9add2e	0.07561718
53	0xbe18793f	-0.14890002
54	0xbd71477f	-0.058906075
55	0x3e42c4ee	0.19020435
56	0xbe10d6ff	-0.14144515
57	0x3ee201ca	0.4414199
58	0xbded6d99	-0.1159317
59	0xbeb5b21c	-0.3548745
60	0x3cc0cd63	0.023535436
61	0xbcb3003d	-0.0218507
62	0xbdf1eb57	-0.11812466
63	0x3df13c26	0.117790505
64	0xbe38ac22	-0.18034413
65	0x3e1ca1fc	0.15296167
66	0xbe626590	-0.22109056
67	0xbe89e798	-0.26934505
68	0xbebf99dc	-0.37422073
69	0x3e3cf7d0	0.18453908
70	0xbe8ab69b	-0.27092442
71	0x3eec8a86	0.46199435
72	0xbe8835dc	-0.2660359
73	0xbea6b96a	-0.32563335
74	0x3ebdf2c6	0.37099284
75	0x3e8e0784	0.2774011
76	0x3e5cf076	0.21576104
77	0xbdd9b5ab	-0.106303535
78	0xbda749a8	-0.08168346
79	0x3c7f1c45	0.015570705
80	0xbe0d8af2	-0.13822535
81	0xbec2bdb8	-0.3803537
82	0x3bcc58c6	0.0062361686
83	0xbdef6a22	-0.11690165
84	0xbe917128	-0.28406644
85	0x3eb7a288	0.3586619
86	0x3d15a7c3	0.036536943
87	0xbe4fe91c	-0.20303768
88	0x3a5505f0	0.000812619
89	0x3eb60a2f	0.35554644
90	0xbb657c5a	-0.0035016746
91	0xbd70de85	-0.05880596
92	0x3e3a13f6	0.18171677
93	0xbe42854a	-0.18996158
94	0xbeb23261	-0.3480406
95	0x3dd49a3f	0.103809826
96	0xbe362274	-0.1778658
97	0x3dc80866	0.09767227
98	0x3e7131a2	0.2355409
99	0xbe8b1613	-0.2716528
100	0x3e483b6a	0.19553915
101	0x3f091dae	0.5356091
102	0x3d20bdb0	0.0392434
103	0x3cc2c491	0.02377537
104	0x3e70b65e	0.23507068
105	0x3e42ba2e	0.19016334
106	0x3eb9acf4	0.36264765
107	0xbe89fbb7	-0.26949856
108	0xbd941d35	-0.07232133
109	0xbc1a5591	-0.009419815
110	0xbc4b5abb	-0.012411769
111	0x3e366263	0.17810969
112	0xbb6b6fd4	-0.003592481
113	0x3e0665a5	0.13124712
114	0xbe88f056	-0.26745862
115	0x3e7d4e1d	0.24736829
116	0x3da5de9d	0.08099101
117	0xbe58261e	-0.2110829
118	0xbe0576be	-0.13033578
119	0xb97f475b	-0.00024345277
120	0xbe4a7a4c	-0.19773215
121	0x3ef9e14b	0.48804697
122	0xbda1c8c3	-0.078996204
123	0xbda2d4eb	-0.07950767
124	0xbe19a7d0	-0.15005422
125	0xbea3b449	-0.31973484
126	0xbe1f36f0	-0.155483
127	0x3d0f58cf	0.034996804
128	0x3e63b030	0.22235179
129	0x3e4c04f2	0.19923761
130	0xbecbb72b	-0.39788184
131	0xbe8f3f1b	-0.27977833
132	0xbe06539d	-0.13117833
133	0x3ec162c2	0.3777066
134	0x3e31f20c	0.1737749
135	0x3e08d621	0.13362934
136	0xbdc99cbb	-0.09844347
137	0x3e3eae4f	0.18621181
138	0x3e92fe35	0.2870957
139	0x3d1a6ca6	0.03770127
140	0xbd478e74	-0.04871984
141	0xbe495450	-0.19661069
142	0x3e1a1e01	0.15050508
143	0x3da71688	0.08158594
144	0x3d502f6a	0.050826468
145	0xbea78148	-0.3271582
146	0x3de3c166	0.11120872
147	0x3e7c4108	0.24634182
148	0x3e9ef1d9	0.3104389
149	0x3ec97cfc	0.39353168
150	0x3e8ecacf	0.27889106
151	0xbe2b3165	-0.16718061
152	0x3e8a3a2c	0.26997507
153	0x3e96e06d	0.29468098
154	0x3e9f1e39	0.31077746
155	0xbf0cdfc3	-0.55028933
156	0xbd7ecb60	-0.062205672
157	0x3e5cb322	0.21552709
158	0xbe2cb839	-0.1686715
159	0x3e45cde8	0.19316828
160	0x3e9c87ac	0.3057226
161	0x3e595021	0.21221973
162	0xbe482d52	-0.19548538
163	0xbe93cdca	-0.28867942
164	0x3df7df68	0.12103158
165	0xbd5e28c5	-0.0542381
166	0x3e661b51	0.22471358
167	0x3dbf3ee4	0.09338167
168	0xbdd53a2c	-0.10411486
169	0xbe95e9e4	-0.29280007
170	0xbe907a99	-0.28218535
171	0xbe1187b0	-0.14211917
172	0xbeac4fd0	-0.33654642
173	0xbecf6613	-0.40507564
174	0xbdcb15f0	-0.099162936
175	0xbd9c9197	-0.076449566
176	0x3ea366d1	0.3191438
177	0xbdbe1d79	-0.09282965
178	0xbe0cf613	-0.13765745
179	0xbe9075db	-0.28214917
180	0xbe2f1e1e	-0.17101333
181	0xbee5dd1b	-0.44895253
182	0xbe01ae49	-0.12664141
183	0xbcf52dcb	-0.029929062
184	0x3e879ea0	0.2648821
185	0xbea53395	-0.32265916
186	0xbd4dad18	-0.050213903
187	0x3e80ffbe	0.25195116
188	0x3d8d1de0	0.06890464
189	0x3f0ffeaf	0.5624799
190	0x3e9aacc8	0.30209947
191	0x3db806da	0.08985682
192	0x3df5f297	0.12009161
193	0xbe4985c9	-0.19679941
194	0x3ecca2d3	0.39967975
195	0x3df0212a	0.117250755
196	0xbe5d5a62	-0.2161651
197	0xbe92886a	-0.286197
198	0xbe51848e	-0.20460722
199	0x3bd7bd08	0.0065838136
200	0x3df6fd6c	0.12060055
201	0xbe28b735	-0.16476138
202	0x3d8232de	0.063573584
203	0x3c084dac	0.0083193
204	0xbe77a414	-0.24183685
205	0x3e6d225b	0.23157637
206	0x3d61bbb4	0.05511065
207	0xbd0bda24	-0.034143582
208	0x3e8d8038	0.27636886
209	0x3e631088	0.22174275
210	0x3e2cd993	0.16879873
211	0xbe16a01f	-0.14709519
212	0xbdf5a3ed	-0.11994157
213	0x3d3e7fc5	0.04650857
214	0x3debc2c1	0.11511756
215	0x3f01e512	0.5074016
216	0x3e75441e	0.23951766
217	0xbeb50be0	-0.35360622
218	0xbe958484	-0.29202664
219	0x3e9a2e96	0.30113667
220	0xbe4a1e41	-0.19738103
221	0xbd3e0454	-0.046390846
222	0x3dccaf95	0.09994427
223	0xbe4d0798	-0.20022428
224	0xbc92a937	-0.017902954
225	0x3eb4c021	0.35302833
226	0x3ebc5719	0.367852
227	0xbebb1f31	-0.36547235
228	0xbcdf93b4	-0.02729211
229	0x3e9ef206	0.31044024
230	0x3e8af350	0.27138758
231	0x3eb8ce57	0.36094925
232	0x3ecf9b12	0.40547997
233	0x3ec05410	0.37564135
234	0x3e951105	0.29114547
235	0xbc9fafce	-0.01949301
236	0x3d90e6b3	0.070752524
237	0x3e68e4ab	0.2274348
238	0x3ea42f28	0.32067227
239	0x3df9a4ed	0.1218966
240	0x3e93acc1	0.28842738
241	0x3e432b8f	0.19059585
242	0x3de62b6a	0.11238749
243	0xbe2072d3	-0.15668802
244	0xbdaa431a	-0.0831358
245	0x3ee12e23	0.43980512
246	0x3e91591b	0.28388295
247	0x3eb220af	0.3479056
248	0xbebde6ee	-0.37090248
249	0xbcd222b4	-0.025651313
250	0xbe39c8fd	-0.18143077
251	0xbd858175	-0.065188326
252	0xbe8b96ad	-0.27263394
253	0xbe9e5712	-0.30925804
254	0x3eba838e	0.36428493
255	0x3eac0726	0.33599204

fc1.bias f4 [126]
0	0x3da1cb83	0.07900145
1	0x3ed439f2	0.4145046
2	0x3e25573b	0.16146557
3	0x3eb837de	0.35980123
4	0x3edb265c	0.42802703
5	0x3e62cc6e	0.22148296
6	0xbe66ea13	-0.2255023
7	0x3e44b15c	0.19208282
8	0xbe894f40	-0.26818275
9	0x3ec26164	0.37964928
10	0xba7c266b	-0.0009618762
11	0x3ed89bfa	0.423065
12	0x3e501e5e	0.20324084
13	0x3e144425	0.1447912
14	0xbdc8ac5b	-0.09798499
15	0x3e580aa0	0.21097803
16	0xbdbcb1c6	-0.09213595
17	0xbe4fdaf3	-0.20298366
18	0xbddc88a4	-0.1076825
19	0xbde10efc	-0.10989186
20	0x3ebadaa8	0.36494946
21	0xbd696181	-0.056977753
22	0x3e661ace	0.22471163
23	0x3dc349fc	0.09535596
24	0x3e83904f	0.25696036
25	0x3df45fc4	0.11932328
26	0x3f1e52f9	0.61845356
27	0xbe066071	-0.13122727
28	0x3e26a72a	0.16274706
29	0x3ed24bef	0.41073558
30	0x3eb3c1f9	0.35108927
31	0xbe6893f6	-0.22712693
32	0x3e9c4734	0.30523074
33	0x3ec5d09f	0.38635728
34	0x3d49a5bf	0.049230333
35	0xbdd6c6c8	-0.10487133
36	0x3ece5ead	0.40306607
37	0xbde7ddbe	-0.11321591
38	0xbe438dce	-0.19097063
39	0x3df78a88	0.120869696
40	0x3e9e5076	0.30920762
41	0x3ee872a7	0.45399973
42	0xbc597a93	-0.013273853
43	0x3e5e8844	0.21731669
44	0x3ee265b9	0.44218233
45	0x3d22a7af	0.039710697
46	0x3ef0d9d1	0.4704118
47	0xbda48dfc	-0.08034894
48	0x3dba2bee	0.0909041
49	0xbe6d80b6	-0.2319363
50	0x3ea6bf82	0.32567984
51	0x3eeb4a3d	0.45955077
52	0x3eddfcd6	0.4335696
53	0xbdb39629	-0.08768875
54	0x3d8be416	0.06830613
55	0xbeadcdad	-0.3394598
56	0x3da0a326	0.07843618
57	0x3eddc1b6	0.43311852
58	0xbc9176ea	-0.017756898
59	0x3d9862c5	0.07440714
60	0xbd404a07	-0.046945598
61	0x3e9be8c1	0.30451015
62	0x3e272474	0.163225
63	0x3f176ecc	0.5915344
64	0xbebb29fe	-0.36555475
65	0xbe94eaff	-0.29085538
66	0x3bb567e1	0.005536065
67	0xbd1b73d2	-0.03795225
68	0x3ede873f	0.4346256
69	0x3eb40a82	0.35164267
70	0xbae29289	-0.0017286103
71	0xbe6e83a0	-0.23292398
72	0x3e3d22c4	0.18470293
73	0x3f0e3e59	0.55563885
74	0x3d02a871	0.03189892
75	0xbd44a1b0	-0.04800576
76	0x3e35e875	0.17764457
77	0xbe9483d0	-0.29006815
78	0x3dcffe80	0.10155964
79	0xbe7747ed	-0.24148531
80	0x3e74393c	0.23849958
81	0xbd1446a0	-0.036200166
82	0x3ebf2175	0.37330213
83	0xbccec032	-0.02523813
84	0x3eb0eccd	0.34555665
85	0xbe049516	-0.12947497
86	0x3f0a7881	0.54090124
87	0xbe288820	-0.16458178
88	0xbeb1bf5b	-0.34716305
89	0x3e9b0e32	0.30284268
90	0x3eeb8301	0.45998386
91	0xbde1a0a4	-0.11016968
92	0x3e4c64f2	0.19960383
93	0xbe8b7e47	-0.2724478
94	0xbd1145e4	-0.035467044
95	0x3e39a7d0	0.18130422
96	0x3f01810e	0.50587547
97	0xbe57d241	-0.21076299
98	0x3f04e2ba	0.5190846
99	0x3e36c846	0.17849836
100	0xbd94871f	-0.07252335
101	0x3ebb861d	0.36625758
102	0x3f11d9df	0.5697307
103	0x3e57c4be	0.21071145
104	0x3d1d54c5	0.03841092
105	0x3f04260a	0.51620543
106	0x3f132aab	0.5748698
107	0xbde2dac0	-0.110768795
108	0x3d29afce	0.041427426
109	0x3e2510ea	0.16119733
110	0x3ee6163a	0.44938833
111	0x3e46cd49	0.19414248
112	0xbca52b3f	-0.020162223
113	0x3be2b27e	0.0069182506
114	0x3ef231f6	0.47303742
115	0xbe52384d	-0.2052929
116	0x3f01582b	0.5052516
117	0x3f19f387	0.6013722
118	0x3e133fb8	0.14379776
119	0x3f32bc79	0.69818836
120	0x3ec0296d	0.37531605
121	0x3ef6b965	0.4818832
122	0x3cf82be0	0.030294359
123	0x3f15194e	0.58241737
124	0x3f146885	0.57971984
125	0x3e236a12	0.15958431

fc2.weight f4 [63, 126]
0	0x3d2932bc	0.04130815
1	0x3a9d8284	0.0012017046
2	0xbcf71b06	-0.030164253
3	0x3daced97	0.08443754
4	0x3db5b51a	0.08872433
5	0x3e42ff42	0.19042686
6	0xbd06e700	-0.032935143
7	0x3e04045d	0.1289229
8	0xbe1aa208	-0.15100873
9	0x3d2cac95	0.042156775
10	0xbdc3935f	-0.09549593
11	0x3cf456ff	0.02982664
12	0xbd89bb8a	-0.06725223
13	0x3c5e7784	0.013578299
14	0x3d583430	0.052784145
15	0x3de2fe5c	0.110836715
16	0x3c3c18c7	0.011480517
17	0x3d0eb9ef	0.03484529
18	0xbd8048bb	-0.06263872
19	0x3e083e43	0.13305001
20	0x3e1b28c0	0.15152264
21	0x3d47d2fe	0.048785202
22	0x3da2980c	0.07939157
23	0x3e0381ca	0.1284248
24	0x3a8d54be	0.0010782701
25	0x3cc5b6b5	0.024134973
26	0x3e858083	0.2607461
27	0x3d628142	0.05529905
28	0x3e3a012e	0.18164513
29	0x3e835671	0.25651887
30	0x3e16a4b5	0.14711268
31	0xbdd732a5	-0.105077066
32	0x3c12102d	0.008914989
33	0x3e05c3f8	0.13063037
34	0x3d96123b	0.07327696
35	0x3da8fff3	0.082519434
36	0x3e607364	0.21919018
37	0x3c96d8de	0.018413957
38	0x3da26454	0.07929292
39	0x3d73b6b7	0.059500422
40	0x3dfbf624	0.12302807
41	0x3c78749c	0.015164521
42	0x3e187965	0.14890058
43	0x3dae5443	0.085121654
44	0x3d8b96d4	0.068158776
45	0x3dafc7ed	0.08583055
46	0x3e225403	0.1585236
47	0x3cdf9e99	0.027297305
48	0x3dc39de1	0.095515974
49	0xbe89ba98	-0.26900172
50	0x3dbce0de	0.092225775
51	0x3d5beda9	0.053693447
52	0x3d7d58f7	0.06185242
53	0xbc7bc927	-0.015367783
54	0x3c5f5fb2	0.013633655
55	0xbe82dfc3	-0.25561342
56	0x3df0e51d	0.1176245
57	0x3d9139bd	0.07091091
58	0xbd7d3357	-0.06181654
59	0xbc4fcf77	-0.012683741
60	0xbd238fa7	-0.03993192
61	0x3dd1da80	0.10246754
62	0xbc9bc922	-0.019016806
63	0x3e68f206	0.22748575
64	0xbdf117a4	-0.11772087
65	0xbd980e98	-0.074246585
66	0x3ce9f653	0.02855984
67	0xbdbf1b7b	-0.09331413
68	0x3e544cc2	0.20732406
69	0x3d866c26	0.065635964
70	0xbdbc3e42	-0.09191562
71	0xbc1ce067	-0.009574986
72	0xbb0f71c5	-0.002188788
73	0x3e0c8d84	0.13725859
74	0x3db3d4fb	0.08780857
75	0x3dfd497b	0.12367531
76	0x3d8dd7f0	0.069259524
77	0xbe2c7fb3	-0.16845588
78	0x3aa32a32	0.0012448488
79	0xbe873a7a	-0.26411802
80	0x3df82f36	0.1211838
81	0x3e14ebf1	0.1454313
82	0x3e132c6a	0.14372411
83	0xbd72309a	-0.05912838
84	0x3e2ebb3e	0.17063615
85	0x3d7c7339	0.061633322
86	0x3db99222	0.09061076
87	0xbc9fcc24	-0.019506522
88	0x3b160752	0.0022892547
89	0x3dcf1133	0.10110702
90	0x3dedfb2c	0.11620173
91	0x3b971942	0.0046111653
92	0x3d3dde0e	0.046354346
93	0x3d7a4d1d	0.061108697
94	0x3da7bdf0	0.081905246
95	0x3db18a18	0.086689174
96	0x3e383313	0.17988233
97	0x3d8a969a	0.06767006
98	0x3d659c51	0.056057278
99	0x3da74317	0.08167093
100	0xbdd79bbf	-0.10527753
101	0x3df51972	0.11967744
102	0x3bf961cd	0.0076105357
103	0x3db7cafe	0.089742646
104	0xbd1d48ce	-0.03839951
105	0x3dfea994	0.12434688
106	0x3e401335	0.18757327
107	0xbde51463	-0.11185529
108	0xbc6a893f	-0.014314949
109	0x3dc1938f	0.09451973
110	0x3db69ee0	0.08917022
111	0x3e2c3ac5	0.16819294
112	0x3ce721ea	0.028214414
113	0x3c9bfceb	0.0190415
114	0x3de3e595	0.11127774
115	0x3de71640	0.11283541
116	0x3e11dac8	0.14243615
117	0x3e061c62	0.13096765
118	0x3cba5744	0.02274669
119	0x3e04ecf0	0.1298101
120	0x3df2e3af	0.118598334
121	0x3e156015	0.14587434
122	0x3da72397	0.08161085
123	0x3dcf71d7	0.10129135
124	0x3df111b9	0.117709585
125	0x3dc865d5	0.09785048
126	0x3dbdf5ca	0.09275396
127	0x3dfee53e	0.12446068
128	0x3df27fbb	0.11840769
129	0x3e141364	0.14460522
130	0xbc73b2f1	-0.014874206
131	0x3daebcb5	0.08532087
132	0xbc211773	-0.009832251
133	0x3d1359c0	0.035974264
134	0xbe501818	-0.20321691
135	0x3c612952	0.013742762
136	0xbe163055	-0.14666875
137	0x3dc7bcef	0.09752833
138	0x3dcb122c	0.099155754
139	0x3e0971ae	0.13422272
140	0x3cbf6dd6	0.023367804
141	0xbc20171a	-0.009771133
142	0xbc389709	-0.011266478
143	0xbbbc6723	-0.0057495995
144	0x3ca3c13a	0.019989599
145	0x3e014ffe	0.12628171
146	0x3e07b147	0.1325122
147	0xbdafc45b	-0.08582374
148	0x3d2ef94a	0.04271821
149	0x3d2e2b1c	0.04252158
150	0x3d0f217a	0.034944035
151	0x3cffc53e	0.031221982
152	0x3e074d76	0.13213143
153	0x3c226913	0.009912747
154	0x3d608fb2	0.05482454
155	0x3dff3fb3	0.124633215
156	0x3d7b4e5e	0.061354034
157	0xbe1b5336	-0.15168461
158	0x3dcaaddf	0.098964445
159	0x3d12a9c5	0.035806436
160	0x3b64c2f6	0.0034906245
161	0x3d67641c	0.056491956
162	0x3db7870c	0.08961305
163	0xbddf87b4	-0.10914555
164	0x3c1c39ba	0.009535247
165	0x3d52f997	0.05150756
166	0x3d0c034f	0.034182843
167	0x3db6464c	0.08900127
168	0x3e1c8853	0.15286379
169	0x3d5cf882	0.053947933
170	0x3d8160c4	0.06317285
171	0x3d45ac7f	0.04826021
172	0x3e1bdaf2	0.1522024
173	0x3cc297a7	0.023753954
174	0xbbd5165d	-0.00650291
175	0xbe2057c9	-0.15658487
176	0x3d80c166	0.06286888
177	0x3e3841fc	0.17993921
178	0x3ddb0a5d	0.10695336
179	0x3e058603	0.13039403
180	0x3e2be34b	0.16785924
181	0xbea26954	-0.31720984
182	0xbc811ed2	-0.015761767
183	0x3cc54109	0.024078863
184	0xbc808557	-0.015688581
185	0x3e117746	0.14205655
186	0xbd1aa7fe	-0.037757866
187	0x3da58a41	0.080830105
188	0x3da77371	0.081763156
189	0x3e3c3a04	0.18381506
190	0xbe88ebb0	-0.26742315
191	0xbb7c06b2	-0.003845614
192	0x3d846194	0.06463924
193	0xbcfda80e	-0.030963924
194	0x3e45b45c	0.19307083
195	0x3e53f3ea	0.20698515
196	0xbd3437d3	-0.04399855
197	0xbdc7927c	-0.097447366
198	0x3c6c1205	0.014408593
199	0x3e533651	0.20626189
200	0x3dd521c7	0.10406833
201	0xbc1f6d1c	-0.009730604
202	0x3d98a49b	0.07453271
203	0xbdc43146	-0.09579711
204	0x3d99026a	0.074711636
205	0xbec0fd9e	-0.37693495
206	0x3dc8b0e1	0.09799362
207	0x3e1bc7f2	0.15212992
208	0x3de6b2ed	0.11264596
209	0x3dab77b0	0.08372438
210	0x3da84f5b	0.08218261
211	0x3bfce89a	0.007718158
212	0x3db98e75	0.09060375
213	0x3d1ccc33	0.038280677
214	0xbd8a7089	-0.06759746
215	0x3df81c17	0.12114733
216	0x3dacaf53	0.08431878
217	0x3c8e4dd3	0.017371094
218	0x3ca65174	0.020302512
219	0xbd8f6430	-0.07001531
220	0x3d867c2a	0.06566651
221	0x3d923245	0.071384944
222	0x3e00f4db	0.12593405
223	0x3e031e0d	0.12804432
224	0x3e214c0e	0.15751669
225	0x3d9581a5	0.07300118
226	0x3c841132	0.01612148
227	0x3db96661	0.0905273
228	0x3d6229c6	0.05521562
229	0x3d84994a	0.0647455
230	0xbd362cd6	-0.044476353
231	0x3e45a1bf	0.19299982
232	0x3e45ed7d	0.19328876
233	0xbdabeb2f	-0.08394467
234	0x3b7ba70c	0.0038399128
235	0x3e17ae48	0.14812577
236	0x3e076212	0.13221005
237	0x3dd637d3	0.104598664
238	0x3de325b1	0.110911734
239	0xbb8b572b	-0.0042523346
240	0x3df9f2b9	0.12204499
241	0xbd8b14c8	-0.06791073
242	0x3d80ca52	0.062885895
243	0x3d564e3e	0.05232071
244	0xbd26a472	-0.04068417
245	0x3e7a353e	0.24434373
246	0x3da1415c	0.078737944
247	0x3e3b33cb	0.18281476
248	0x3e02df01	0.12780382
249	0x3e4eab7e	0.20182607
250	0x3e2c1603	0.16805272
251	0xbcde0ea8	-0.027106598
252	0x3df2a58c	0.11847982
253	0x3d8fbb47	0.07018142
254	0x3dad4c73	0.08461847
255	0x3dacd7cf	0.084396

fc2.bias f4 [63]
0	0x3e9a7165	0.30164638
1	0x3e47ca0a	0.19510666
2	0x3e9fd78d	0.3121914
3	0x3e50d7e2	0.20394853
4	0x3e51daf7	0.20493685
5	0x3d88ed7d	0.06685922
6	0x3e8c8e5a	0.27452356
7	0xbd67047e	-0.05640077
8	0x3ca3d5c6	0.019999396
9	0xbd05b622	-0.0326444
10	0xbcbe5fa3	-0.023238963
11	0x3e828d6b	0.25498518
12	0x3e3936f3	0.18087368
13	0x3e9a67fa	0.30157453
14	0x3e9d28e1	0.3069525
15	0xbcff9693	-0.03119973
16	0xbe102a5e	-0.14078662
17	0x3e3c6397	0.18397366
18	0x3dec74a5	0.11545686
19	0x3c19ebef	0.00939463
20	0x3e7fac43	0.24968056
21	0x3e8dd36e	0.2770037
22	0xbd62a69a	-0.055334665
23	0x3e57a908	0.21060574
24	0x3dad0501	0.0844822
25	0xbdda9d77	-0.10674565
26	0x3e1e2866	0.15445098
27	0x3e7fa907	0.24966823
28	0x3e801e3c	0.25023067
29	0xbdfc04f2	-0.12305631
30	0x3e790c93	0.24321203
31	0xbcd6e1d0	-0.026230723
32	0xbde13d1b	-0.10997983
33	0x3e812892	0.25226265
34	0x3e62edc5	0.22161014
35	0xbdb2b5f5	-0.08726112
36	0x3e7a10f6	0.24420533
37	0x3e81378e	0.25237697
38	0xbcd5a8c5	-0.026081452
39	0x3e1a10de	0.15045497
40	0xbdd77e4b	-0.10522135
41	0x3e948522	0.29007822
42	0x3e8aa25d	0.27076998
43	0x3e98c0da	0.29834634
44	0xbd5e8ed0	-0.054335415
45	0xbdfa0bd2	-0.12209286
46	0x3e3efd4b	0.18651311
47	0x3d134648	0.035955697
48	0xbddb0dab	-0.10695966
49	0x3e7005d3	0.23439722
50	0x3e99a1e4	0.30006325
51	0x3e7fb9a9	0.24973167
52	0x3c8fa47c	0.017534487
53	0x3e85c4b8	0.26126647
54	0xbdf08325	-0.11743764
55	0x3e553655	0.20821507
56	0x3de40f06	0.11135678
57	0xbdefd63e	-0.11710785
58	0x3e416d08	0.18889248
59	0x3e7af2be	0.24506661
60	0xbe076504	-0.13222128
61	0xbddfb3aa	-0.1092294
62	0x3e3b4521	0.1828809

fc3.weight f4 [31, 63]
0	0xbe23ab9c	-0.15983433
1	0xbe0a2ccd	-0.13493653
2	0xbd95ff65	-0.07324103
3	0xbe19f7a5	-0.15035875
4	0x3c683599	0.014172935
5	0xbe23bc5f	-0.15989827
6	0x3d82e85e	0.06391977
7	0xbce62a22	-0.028096262
8	0xbd3c2042	-0.0459292
9	0x3c6a6f70	0.014308795
10	0x3d015150	0.031571686
11	0xbd5f424c	-0.054506585
12	0xbe1b2d79	-0.15154065
13	0xbe0ffd55	-0.14061482
14	0xbde93b90	-0.11388314
15	0xbd9d76dc	-0.07688686
16	0x3d98b20a	0.07455833
17	0xbc8d7f0b	-0.017272493
18	0xbe1a5dc5	-0.15074833
19	0x3cc590b3	0.02411685
20	0x3d1bb169	0.03801099
21	0xbdda2dfc	-0.10653302
22	0xbda98e01	-0.08279038
23	0x3c6866ca	0.014184663
24	0xbe0d113d	-0.13776107
25	0x3b21a9c4	0.0024667839
26	0x3d3befe7	0.045883086
27	0xbc14537f	-0.00905311
28	0x3d563959	0.052300785
29	0x3d3158fa	0.043297745
30	0xbd9064da	-0.07050486
31	0xbe1606b7	-0.14650999
32	0xbde397a8	-0.111129105
33	0xbd6564ae	-0.05600422
34	0xbd66d428	-0.05635467
35	0xbd15db43	-0.036586057
36	0xbd8588cb	-0.06520232
37	0xbc9c3226	-0.019066881
38	0xbe18d8cf	-0.14926456
39	0xbd59190e	-0.05300241
40	0xbe00b50a	-0.12569061
41	0x3d172260	0.036898017
42	0xbd121d51	-0.03567249
43	0xbe029b6b	-0.127546
44	0x3ca397cd	0.019969845
45	0xbe20f0af	-0.15716814
46	0xbcc2b10c	-0.023766063
47	0xbe30c463	-0.17262416
48	0xbda9fd86	-0.08300309
49	0xbd3031e6	-0.043016337
50	0xbe359f37	-0.17736517
51	0xbddc5aba	-0.10759492
52	0xbdcf5afc	-0.10124776
53	0x3c9f28d1	0.019428642
54	0xb9aba653	-0.00032739583
55	0xbe0b3941	-0.1359606
56	0xbe1c119e	-0.15241095
57	0xbd7b8ca8	-0.061413437
58	0xbe1d6337	-0.15369879
59	0x3d6f493c	0.05841945
60	0xbc22628d	-0.009911192
61	0x3cc6caa2	0.024266545
62	0xbc4536ed	-0.012037021
63	0x3c56b901	0.013105632
64	0x3d13696f	0.03598922
65	0xbe448986	-0.19193086
66	0xbd4ce2a2	-0.05002082
67	0xbdca7c90	-0.0988704
68	0xbe20558b	-0.15657632
69	0xbe4a13c7	-0.19734107
70	0xbdde0123	-0.108400606
71	0xbe371b34	-0.17881471
72	0x3d821090	0.06350815
73	0xbe2a2663	-0.16616206
74	0x3c3bfb0e	0.01147343
75	0xbe57f9b8	-0.21091354
76	0xbe21bf8c	-0.15795726
77	0xbe07158f	-0.13191818
78	0xbd8b529c	-0.06802866
79	0xbe27f1c8	-0.16400826
80	0xbda7169e	-0.08158611
81	0xbdc2d7ac	-0.095137924
82	0xbe0204f8	-0.12697208
83	0xbd24f9dd	-0.04027735
84	0xbdf78946	-0.1208673
85	0xbb31cb1c	-0.002712912
86	0xbe115c9b	-0.14195482
87	0x3d33a21f	0.043855783
88	0xbe03a6c9	-0.12856592
89	0xbaebd185	-0.0017991519
90	0x3cd4ab84	0.025960691
91	0xbd5b3261	-0.053514842
92	0xbdb07822	-0.086166635
93	0xbd357413	-0.04430015
94	0xbd8f9aa8	-0.0701192
95	0xbe3ce672	-0.18447283
96	0xba89269c	-0.0010463777
97	0xbcb9faa2	-0.022702519
98	0x3c8dbaa4	0.017300911
99	0xbe105ea7	-0.14098607
100	0xbe0a4802	-0.13504031
101	0xbceedb3b	-0.029157272
102	0xbd3c1955	-0.045922596
103	0x3c0db331	0.00864868
104	0xbdb4c7b7	-0.08827155
105	0xbe279be2	-0.16368058
106	0xbe1a5ed9	-0.15075244
107	0xbdd16377	-0.102240495
108	0xbd00a9a1	-0.03141177
109	0xbd5bb5fe	-0.05364036
110	0x3d4e048e	0.050297312
111	0xbcbc67f2	-0.022998784
112	0xbdd9a406	-0.10626988
113	0xbe400675	-0.18752463
114	0x3b9fe7e1	0.004879937
115	0xbd5a7b5f	-0.053340312
116	0xbe1e01f2	-0.1543043
117	0xbe1678e6	-0.14694557
118	0x3c8316a8	0.016002014
119	0xbdb149a2	-0.086566225
120	0xbde343d5	-0.11096922
121	0xbcf43a27	-0.029812885
122	0xbe34d74c	-0.17660254
123	0xbe0c6da9	-0.13713707
124	0x3c7e8029	0.015533485
125	0xbc9e0315	-0.019288579
126	0x3d4af6c1	0.04955173
127	0x3da5f7b1	0.08103884
128	0x3cde76a6	0.027156185
129	0x3e0b6760	0.13613653
130	0x3d9c4245	0.076298274
131	0x3d9b72af	0.075902335
132	0x3e2f1a31	0.17099835
133	0xbd06548a	-0.032795466
134	0x3e1344b5	0.14381678
135	0x3e14e548	0.14540589
136	0xbdb7908e	-0.089631185
137	0x3d33ae4e	0.0438674
138	0x3d3011d1	0.04298574
139	0xbcfe500a	-0.031044025
140	0xbca12cd0	-0.019674689
141	0x3cf71c1f	0.030164776
142	0x3d7fec91	0.062481467
143	0x3e231b02	0.15928271
144	0x3e164a92	0.14676884
145	0x3e4c4edd	0.19951959
146	0x3def593e	0.116869435
147	0x3dee8669	0.116467305
148	0xbd393c1f	-0.04522335
149	0x3ba029fe	0.0048878184
150	0x3d71fad1	0.059077088
151	0x3dbb1db1	0.091365226
152	0xbd3747eb	-0.04474632
153	0xbd548c70	-0.051891744
154	0x3d96c716	0.073621914
155	0xbb1b6422	-0.0023710807
156	0x3cd37775	0.025813797
157	0x3e307e85	0.17235763
158	0x3e0f0c95	0.13969643
159	0x3d99c5ad	0.07508407
160	0x3e156182	0.14587978
161	0x3e412a08	0.1886369
162	0xba809be6	-0.0009812086
163	0x3dcfa96c	0.101397365
164	0x3deed70f	0.11662113
165	0x3e2a2b93	0.16618185
166	0x3e1a3651	0.15059783
167	0x3dda4ee5	0.10659579
168	0x3d9d7128	0.076875985
169	0x3d977308	0.07394987
170	0x3e2b5a14	0.16733581
171	0x3da326f5	0.07966415
172	0x3e5bcea2	0.21465543
173	0x3e17b1e2	0.1481395
174	0x3df97443	0.12180378
175	0xbcd61d46	-0.026137006
176	0x3d6b2707	0.057410266
177	0x3e2fbdfb	0.17162316
178	0x3d7c585f	0.061607715
179	0x3d059b1f	0.032618638
180	0x39f42e39	0.00046573745
181	0x3e3a6d66	0.18205795
182	0x3def1ad1	0.11675037
183	0xbd5243d5	-0.05133422
184	0x3e0e2a76	0.13883385
185	0x3e09fab4	0.13474542
186	0x3d925b8e	0.07146369
187	0x3e353425	0.17695673
188	0x3c22cf03	0.009937051
189	0x3e5e6a4a	0.21720234
190	0xbca76752	-0.02043501
191	0x3df99f66	0.12188606
192	0x3e26f006	0.16302499
193	0x3dac5ed5	0.08416525
194	0x3e17969c	0.14803547
195	0x3df43465	0.11924056
196	0xbd0439d0	-0.032281697
197	0xbd3d75f5	-0.04625507
198	0xbd131e57	-0.035917606
199	0xbddb7e08	-0.10717398
200	0x3e4b7cbd	0.19871803
201	0x3deeea3a	0.11665769
202	0x3e1cf048	0.15326035
203	0x3e44d4ed	0.1922185
204	0xbdaf0ced	-0.08547387
205	0xbca18b7d	-0.019719834
206	0x3e21a775	0.15786536
207	0x3dc7c5cc	0.09754524
208	0xbcfe06c8	-0.031009093
209	0x3e4037ac	0.18771237
210	0x3e2a6cb1	0.16643025
211	0xbd316d66	-0.04331722
212	0x3e1bbe89	0.15209402
213	0x3e2bc1b5	0.16773112
214	0x3a0ab79b	0.00052916416
215	0x3e434a59	0.1907133
216	0x3e4ba339	0.19886483
217	0x3e170927	0.14749585
218	0xbd0ca120	-0.03433335
219	0x3e179a44	0.14804941
220	0x3dd9b5ba	0.10630365
221	0xbae5f59f	-0.0017544514
222	0x3dd4a368	0.1038273
223	0x3e220c64	0.15825039
224	0x3daa293e	0.083086476
225	0x3e360395	0.17774804
226	0x3e422669	0.18959965
227	0xbcf6d98e	-0.030133035
228	0x3e559ca9	0.20860542
229	0x3d38bfa8	0.045104653
230	0xbcaaeeda	-0.020865846
231	0x3e144318	0.14478719
232	0x3de263aa	0.11054166
233	0x3bcee3ba	0.006313768
234	0xbc510ec7	-0.012759871
235	0x3e416f20	0.18890047
236	0x3d2821a9	0.041047726
237	0xb86e748c	-5.6852165e-05
238	0x3e0ff05c	0.14056534
239	0x3da1775f	0.07884096
240	0x3e4562b7	0.19275938
241	0x3bd23935	0.006415511
242	0xbae059dc	-0.0017116624
243	0x3de77216	0.11301057
244	0xbc80cd51	-0.015722902
245	0x3e24ebc4	0.16105562
246	0x3c14b1e6	0.009075617
247	0x3d140078	0.03613326
248	0x3e419a22	0.18906453
249	0x3da2a3e7	0.07941418
250	0x3d0dcd46	0.034619592
251	0x3e1463de	0.14491221
252	0x3d999a44	0.07500127
253	0x3e5cc54e	0.21559641
254	0x3d8c29f7	0.06843942
255	0xbc4a1cf8	-0.012336008

fc3.bias f4 [31]
0	0xbe00f1ac	-0.1259219
1	0x3d2fee6f	0.042951997
2	0x3e4e501d	0.20147748
3	0x3e9c8f9f	0.30578324
4	0x3e92a293	0.2863966
5	0xbe21470a	-0.15749756
6	0x3e4f036d	0.2021615
7	0x3ca36430	0.019945234
8	0x3d1a2131	0.03762931
9	0xbc1fda2e	-0.009756608
10	0xbdacf1d3	-0.08444562
11	0x3e330897	0.17483746
12	0x3e3ab8cd	0.18234558
13	0x3e93ed21	0.28891852
14	0xbd1a50d1	-0.03767473
15	0x3eb25cf1	0.34836534
16	0x3e20277a	0.15640059
17	0x3e53998f	0.20664047
18	0xbd9959fa	-0.07487865
19	0x3e8f923b	0.28041252
20	0x3e9127f9	0.2835081
21	0x3e9b125f	0.30287454
22	0x3eb618f7	0.35565922
23	0xbd2f125a	-0.04274211
24	0x3e17fd1e	0.1484265
25	0x3e913f37	0.28368542
26	0x3eb0e168	0.3454697
27	0x3df49123	0.11941745
28	0xbe17b542	-0.14815238
29	0xbc841266	-0.016122054
30	0x36f88817	7.406819e-06

fc4.weight f4 [1, 31]
0	0x3d2df629	0.042471085
1	0x3b936c21	0.004498974
2	0x3d96ca3a	0.073627904
3	0x3e5c786d	0.21530314
4	0x3e48eda8	0.19621909
5	0xbd88ff22	-0.06689288
6	0x3dabb354	0.083838135
7	0xbccd1403	-0.025033956
8	0xbd0674eb	-0.032826345
9	0xbddb3aae	-0.10704552
10	0xbd375a30	-0.044763744
11	0x3e63fac1	0.22263624
12	0x3e354a96	0.17704234
13	0x3e63897e	0.22220418
14	0xbc348aa9	-0.011019387
15	0x3e1335c7	0.14375983
16	0x3e099d96	0.1343902
17	0x3e61800c	0.22021502
18	0xbda35be9	-0.07976515
19	0x3e195a6d	0.14975901
20	0x3dd6868a	0.1047488
21	0x3e3eb59e	0.18623969
22	0x3e03676b	0.1283242
23	0xbd458fc7	-0.04823282
24	0x3d838667	0.064221196
25	0x3e7be6f3	0.24599819
26	0x3e533b10	0.20628
27	0x3e223617	0.15840946
28	0x3a924bea	0.001116154
29	0xbca724a4	-0.020403214
30	0xbdcba014	-0.09942642
